…
 04-13 07:45:44 | PyTorch version: 2.1.0
 04-13 07:45:44 | CUDA version: 12.1
 04-13 07:45:44 | 4 GPUs
 04-13 07:45:44 | Random Seed: 2021
 04-13 07:45:45 | Init train dataloader success
 04-13 07:45:45 | Init test dataloader success
[rank 1] CUDA_VISIBLE_DEVICES=0,1,2,3  device_count=4
[rank 2] CUDA_VISIBLE_DEVICES=0,1,2,3  device_count=4
[rank 3] CUDA_VISIBLE_DEVICES=0,1,2,3  device_count=4
[rank 1] set_device(1)  device=1
[rank 2] set_device(2)  device=2
[rank 3] set_device(3)  device=3
 04-13 07:45:50 | DistributedDataParallel(
  (module): semtalk_sparse(
    (mass_cond_proj): Sequential(
      (0): Linear(in_features=1, out_features=256, bias=True)
      (1): LayerNorm((256,), eps=1e-05, elementwise_affine=True)
      (2): GELU(approximate='none')
      (3): Linear(in_features=256, out_features=256, bias=True)
    )
    (hubert_encoder_body): Sequential(
      (0): Conv1d(1024, 256, kernel_size=(3,), stride=(1,), padding=(1,), bias=False)
      (1): BatchNorm1d(256, eps=1e-05, momentum=0.1, affine=True, track_running_stats=True)
      (2): GELU(approximate='none')
      (3): Conv1d(256, 256, kernel_size=(3,), stride=(1,), padding=(1,), bias=False)
    )
    (audio_pre_encoder_body): MLP(
      (mlp): Sequential(
        (0): Linear(in_features=3, out_features=768, bias=True)
        (1): LeakyReLU(negative_slope=0.2, inplace=True)
        (2): Linear(in_features=768, out_features=256, bias=True)
      )
    )
    (at_attn_bert): Linear(in_features=512, out_features=512, bias=True)
    (gate): Linear(in_features=256, out_features=2, bias=True)
    (clip_embedding): Linear(in_features=256, out_features=256, bias=True)
    (emotion_embedding): Linear(in_features=256, out_features=256, bias=True)
    (at_attn_face_semantic): Linear(in_features=512, out_features=512, bias=True)
    (at_attn_body_semantic): Linear(in_features=512, out_features=512, bias=True)
    (gate_face): Linear(in_features=256, out_features=1, bias=True)
    (gate_body): Linear(in_features=256, out_features=1, bias=True)
    (beat_cons_loss): RhythmicIdentificationLoss()
    (face_cons_mlp): MLP(
      (mlp): Sequential(
        (0): Linear(in_features=256, out_features=768, bias=True)
        (1): LeakyReLU(negative_slope=0.2, inplace=True)
        (2): Linear(in_features=768, out_features=256, bias=True)
      )
    )
    (hands_cons_mlp): MLP(
      (mlp): Sequential(
        (0): Linear(in_features=256, out_features=768, bias=True)
        (1): LeakyReLU(negative_slope=0.2, inplace=True)
        (2): Linear(in_features=768, out_features=256, bias=True)
      )
    )
    (predict_res_hands): predict_residual_zq(
      (cross_layer): TransformerDecoderLayer(
        (self_attn): MultiheadAttention(
          (out_proj): NonDynamicallyQuantizableLinear(in_features=256, out_features=256, bias=True)
        )
        (multihead_attn): MultiheadAttention(
          (out_proj): NonDynamicallyQuantizableLinear(in_features=256, out_features=256, bias=True)
        )
        (linear1): Linear(in_features=256, out_features=1024, bias=True)
        (dropout): Dropout(p=0.1, inplace=False)
        (linear2): Linear(in_features=1024, out_features=256, bias=True)
        (norm1): LayerNorm((256,), eps=1e-05, elementwise_affine=True)
        (norm2): LayerNorm((256,), eps=1e-05, elementwise_affine=True)
        (norm3): LayerNorm((256,), eps=1e-05, elementwise_affine=True)
        (dropout1): Dropout(p=0.1, inplace=False)
        (dropout2): Dropout(p=0.1, inplace=False)
        (dropout3): Dropout(p=0.1, inplace=False)
      )
      (cross_attn_1): TransformerDecoder(
        (layers): ModuleList(
          (0-2): 3 x TransformerDecoderLayer(
            (self_attn): MultiheadAttention(
              (out_proj): NonDynamicallyQuantizableLinear(in_features=256, out_features=256, bias=True)
            )
            (multihead_attn): MultiheadAttention(
              (out_proj): NonDynamicallyQuantizableLinear(in_features=256, out_features=256, bias=True)
            )
            (linear1): Linear(in_features=256, out_features=1024, bias=True)
            (dropout): Dropout(p=0.1, inplace=False)
            (linear2): Linear(in_features=1024, out_features=256, bias=True)
            (norm1): LayerNorm((256,), eps=1e-05, elementwise_affine=True)
            (norm2): LayerNorm((256,), eps=1e-05, elementwise_affine=True)
            (norm3): LayerNorm((256,), eps=1e-05, elementwise_affine=True)
            (dropout1): Dropout(p=0.1, inplace=False)
            (dropout2): Dropout(p=0.1, inplace=False)
            (dropout3): Dropout(p=0.1, inplace=False)
          )
        )
      )
      (cross_attn_2): TransformerDecoder(
        (layers): ModuleList(
          (0-2): 3 x TransformerDecoderLayer(
            (self_attn): MultiheadAttention(
              (out_proj): NonDynamicallyQuantizableLinear(in_features=256, out_features=256, bias=True)
            )
            (multihead_attn): MultiheadAttention(
              (out_proj): NonDynamicallyQuantizableLinear(in_features=256, out_features=256, bias=True)
            )
            (linear1): Linear(in_features=256, out_features=1024, bias=True)
            (dropout): Dropout(p=0.1, inplace=False)
            (linear2): Linear(in_features=1024, out_features=256, bias=True)
            (norm1): LayerNorm((256,), eps=1e-05, elementwise_affine=True)
            (norm2): LayerNorm((256,), eps=1e-05, elementwise_affine=True)
            (norm3): LayerNorm((256,), eps=1e-05, elementwise_affine=True)
            (dropout1): Dropout(p=0.1, inplace=False)
            (dropout2): Dropout(p=0.1, inplace=False)
            (dropout3): Dropout(p=0.1, inplace=False)
          )
        )
      )
      (cross_attn_3): TransformerDecoder(
        (layers): ModuleList(
          (0-2): 3 x TransformerDecoderLayer(
            (self_attn): MultiheadAttention(
              (out_proj): NonDynamicallyQuantizableLinear(in_features=256, out_features=256, bias=True)
            )
            (multihead_attn): MultiheadAttention(
              (out_proj): NonDynamicallyQuantizableLinear(in_features=256, out_features=256, bias=True)
            )
            (linear1): Linear(in_features=256, out_features=1024, bias=True)
            (dropout): Dropout(p=0.1, inplace=False)
            (linear2): Linear(in_features=1024, out_features=256, bias=True)
            (norm1): LayerNorm((256,), eps=1e-05, elementwise_affine=True)
            (norm2): LayerNorm((256,), eps=1e-05, elementwise_affine=True)
            (norm3): LayerNorm((256,), eps=1e-05, elementwise_affine=True)
            (dropout1): Dropout(p=0.1, inplace=False)
            (dropout2): Dropout(p=0.1, inplace=False)
            (dropout3): Dropout(p=0.1, inplace=False)
          )
        )
      )
      (cross_attn_4): TransformerDecoder(
        (layers): ModuleList(
          (0-2): 3 x TransformerDecoderLayer(
            (self_attn): MultiheadAttention(
              (out_proj): NonDynamicallyQuantizableLinear(in_features=256, out_features=256, bias=True)
            )
            (multihead_attn): MultiheadAttention(
              (out_proj): NonDynamicallyQuantizableLinear(in_features=256, out_features=256, bias=True)
            )
            (linear1): Linear(in_features=256, out_features=1024, bias=True)
            (dropout): Dropout(p=0.1, inplace=False)
            (linear2): Linear(in_features=1024, out_features=256, bias=True)
            (norm1): LayerNorm((256,), eps=1e-05, elementwise_affine=True)
            (norm2): LayerNorm((256,), eps=1e-05, elementwise_affine=True)
            (norm3): LayerNorm((256,), eps=1e-05, elementwise_affine=True)
            (dropout1): Dropout(p=0.1, inplace=False)
            (dropout2): Dropout(p=0.1, inplace=False)
            (dropout3): Dropout(p=0.1, inplace=False)
          )
        )
      )
      (cross_attn_5): TransformerDecoder(
        (layers): ModuleList(
          (0-2): 3 x TransformerDecoderLayer(
            (self_attn): MultiheadAttention(
              (out_proj): NonDynamicallyQuantizableLinear(in_features=256, out_features=256, bias=True)
            )
            (multihead_attn): MultiheadAttention(
              (out_proj): NonDynamicallyQuantizableLinear(in_features=256, out_features=256, bias=True)
            )
            (linear1): Linear(in_features=256, out_features=1024, bias=True)
            (dropout): Dropout(p=0.1, inplace=False)
            (linear2): Linear(in_features=1024, out_features=256, bias=True)
            (norm1): LayerNorm((256,), eps=1e-05, elementwise_affine=True)
            (norm2): LayerNorm((256,), eps=1e-05, elementwise_affine=True)
            (norm3): LayerNorm((256,), eps=1e-05, elementwise_affine=True)
            (dropout1): Dropout(p=0.1, inplace=False)
            (dropout2): Dropout(p=0.1, inplace=False)
            (dropout3): Dropout(p=0.1, inplace=False)
          )
        )
      )
      (map_zq2): Linear(in_features=512, out_features=256, bias=True)
      (map_zq3): Linear(in_features=768, out_features=256, bias=True)
      (map_zq4): Linear(in_features=1024, out_features=256, bias=True)
      (map_zq5): Linear(in_features=1280, out_features=256, bias=True)
      (classfier_1): MLP(
        (mlp): Sequential(
          (0): Linear(in_features=256, out_features=256, bias=True)
          (1): LeakyReLU(negative_slope=0.2, inplace=True)
          (2): Linear(in_features=256, out_features=256, bias=True)
        )
      )
      (classfier_2): MLP(
        (mlp): Sequential(
          (0): Linear(in_features=256, out_features=256, bias=True)
          (1): LeakyReLU(negative_slope=0.2, inplace=True)
          (2): Linear(in_features=256, out_features=256, bias=True)
        )
      )
      (classfier_3): MLP(
        (mlp): Sequential(
          (0): Linear(in_features=256, out_features=256, bias=True)
          (1): LeakyReLU(negative_slope=0.2, inplace=True)
          (2): Linear(in_features=256, out_features=256, bias=True)
        )
      )
      (classfier_4): MLP(
        (mlp): Sequential(
          (0): Linear(in_features=256, out_features=256, bias=True)
          (1): LeakyReLU(negative_slope=0.2, inplace=True)
          (2): Linear(in_features=256, out_features=256, bias=True)
        )
      )
      (classfier_5): MLP(
        (mlp): Sequential(
          (0): Linear(in_features=256, out_features=256, bias=True)
          (1): LeakyReLU(negative_slope=0.2, inplace=True)
          (2): Linear(in_features=256, out_features=256, bias=True)
        )
      )
    )
    (predict_res_upper): predict_residual_zq(
      (cross_layer): TransformerDecoderLayer(
        (self_attn): MultiheadAttention(
          (out_proj): NonDynamicallyQuantizableLinear(in_features=256, out_features=256, bias=True)
        )
        (multihead_attn): MultiheadAttention(
          (out_proj): NonDynamicallyQuantizableLinear(in_features=256, out_features=256, bias=True)
        )
        (linear1): Linear(in_features=256, out_features=1024, bias=True)
        (dropout): Dropout(p=0.1, inplace=False)
        (linear2): Linear(in_features=1024, out_features=256, bias=True)
        (norm1): LayerNorm((256,), eps=1e-05, elementwise_affine=True)
        (norm2): LayerNorm((256,), eps=1e-05, elementwise_affine=True)
        (norm3): LayerNorm((256,), eps=1e-05, elementwise_affine=True)
        (dropout1): Dropout(p=0.1, inplace=False)
        (dropout2): Dropout(p=0.1, inplace=False)
        (dropout3): Dropout(p=0.1, inplace=False)
      )
      (cross_attn_1): TransformerDecoder(
        (layers): ModuleList(
          (0-2): 3 x TransformerDecoderLayer(
            (self_attn): MultiheadAttention(
              (out_proj): NonDynamicallyQuantizableLinear(in_features=256, out_features=256, bias=True)
            )
            (multihead_attn): MultiheadAttention(
              (out_proj): NonDynamicallyQuantizableLinear(in_features=256, out_features=256, bias=True)
            )
            (linear1): Linear(in_features=256, out_features=1024, bias=True)
            (dropout): Dropout(p=0.1, inplace=False)
            (linear2): Linear(in_features=1024, out_features=256, bias=True)
            (norm1): LayerNorm((256,), eps=1e-05, elementwise_affine=True)
            (norm2): LayerNorm((256,), eps=1e-05, elementwise_affine=True)
            (norm3): LayerNorm((256,), eps=1e-05, elementwise_affine=True)
            (dropout1): Dropout(p=0.1, inplace=False)
            (dropout2): Dropout(p=0.1, inplace=False)
            (dropout3): Dropout(p=0.1, inplace=False)
          )
        )
      )
      (cross_attn_2): TransformerDecoder(
        (layers): ModuleList(
          (0-2): 3 x TransformerDecoderLayer(
            (self_attn): MultiheadAttention(
              (out_proj): NonDynamicallyQuantizableLinear(in_features=256, out_features=256, bias=True)
            )
            (multihead_attn): MultiheadAttention(
              (out_proj): NonDynamicallyQuantizableLinear(in_features=256, out_features=256, bias=True)
            )
            (linear1): Linear(in_features=256, out_features=1024, bias=True)
            (dropout): Dropout(p=0.1, inplace=False)
            (linear2): Linear(in_features=1024, out_features=256, bias=True)
            (norm1): LayerNorm((256,), eps=1e-05, elementwise_affine=True)
            (norm2): LayerNorm((256,), eps=1e-05, elementwise_affine=True)
            (norm3): LayerNorm((256,), eps=1e-05, elementwise_affine=True)
            (dropout1): Dropout(p=0.1, inplace=False)
            (dropout2): Dropout(p=0.1, inplace=False)
            (dropout3): Dropout(p=0.1, inplace=False)
          )
        )
      )
      (cross_attn_3): TransformerDecoder(
        (layers): ModuleList(
          (0-2): 3 x TransformerDecoderLayer(
            (self_attn): MultiheadAttention(
              (out_proj): NonDynamicallyQuantizableLinear(in_features=256, out_features=256, bias=True)
            )
            (multihead_attn): MultiheadAttention(
              (out_proj): NonDynamicallyQuantizableLinear(in_features=256, out_features=256, bias=True)
            )
            (linear1): Linear(in_features=256, out_features=1024, bias=True)
            (dropout): Dropout(p=0.1, inplace=False)
            (linear2): Linear(in_features=1024, out_features=256, bias=True)
            (norm1): LayerNorm((256,), eps=1e-05, elementwise_affine=True)
            (norm2): LayerNorm((256,), eps=1e-05, elementwise_affine=True)
            (norm3): LayerNorm((256,), eps=1e-05, elementwise_affine=True)
            (dropout1): Dropout(p=0.1, inplace=False)
            (dropout2): Dropout(p=0.1, inplace=False)
            (dropout3): Dropout(p=0.1, inplace=False)
          )
        )
      )
      (cross_attn_4): TransformerDecoder(
        (layers): ModuleList(
          (0-2): 3 x TransformerDecoderLayer(
            (self_attn): MultiheadAttention(
              (out_proj): NonDynamicallyQuantizableLinear(in_features=256, out_features=256, bias=True)
            )
            (multihead_attn): MultiheadAttention(
              (out_proj): NonDynamicallyQuantizableLinear(in_features=256, out_features=256, bias=True)
            )
            (linear1): Linear(in_features=256, out_features=1024, bias=True)
            (dropout): Dropout(p=0.1, inplace=False)
            (linear2): Linear(in_features=1024, out_features=256, bias=True)
            (norm1): LayerNorm((256,), eps=1e-05, elementwise_affine=True)
            (norm2): LayerNorm((256,), eps=1e-05, elementwise_affine=True)
            (norm3): LayerNorm((256,), eps=1e-05, elementwise_affine=True)
            (dropout1): Dropout(p=0.1, inplace=False)
            (dropout2): Dropout(p=0.1, inplace=False)
            (dropout3): Dropout(p=0.1, inplace=False)
          )
        )
      )
      (cross_attn_5): TransformerDecoder(
        (layers): ModuleList(
          (0-2): 3 x TransformerDecoderLayer(
            (self_attn): MultiheadAttention(
              (out_proj): NonDynamicallyQuantizableLinear(in_features=256, out_features=256, bias=True)
            )
            (multihead_attn): MultiheadAttention(
              (out_proj): NonDynamicallyQuantizableLinear(in_features=256, out_features=256, bias=True)
            )
            (linear1): Linear(in_features=256, out_features=1024, bias=True)
            (dropout): Dropout(p=0.1, inplace=False)
            (linear2): Linear(in_features=1024, out_features=256, bias=True)
            (norm1): LayerNorm((256,), eps=1e-05, elementwise_affine=True)
            (norm2): LayerNorm((256,), eps=1e-05, elementwise_affine=True)
            (norm3): LayerNorm((256,), eps=1e-05, elementwise_affine=True)
            (dropout1): Dropout(p=0.1, inplace=False)
            (dropout2): Dropout(p=0.1, inplace=False)
            (dropout3): Dropout(p=0.1, inplace=False)
          )
        )
      )
      (map_zq2): Linear(in_features=512, out_features=256, bias=True)
      (map_zq3): Linear(in_features=768, out_features=256, bias=True)
      (map_zq4): Linear(in_features=1024, out_features=256, bias=True)
      (map_zq5): Linear(in_features=1280, out_features=256, bias=True)
      (classfier_1): MLP(
        (mlp): Sequential(
          (0): Linear(in_features=256, out_features=256, bias=True)
          (1): LeakyReLU(negative_slope=0.2, inplace=True)
          (2): Linear(in_features=256, out_features=256, bias=True)
        )
      )
      (classfier_2): MLP(
        (mlp): Sequential(
          (0): Linear(in_features=256, out_features=256, bias=True)
          (1): LeakyReLU(negative_slope=0.2, inplace=True)
          (2): Linear(in_features=256, out_features=256, bias=True)
        )
      )
      (classfier_3): MLP(
        (mlp): Sequential(
          (0): Linear(in_features=256, out_features=256, bias=True)
          (1): LeakyReLU(negative_slope=0.2, inplace=True)
          (2): Linear(in_features=256, out_features=256, bias=True)
        )
      )
      (classfier_4): MLP(
        (mlp): Sequential(
          (0): Linear(in_features=256, out_features=256, bias=True)
          (1): LeakyReLU(negative_slope=0.2, inplace=True)
          (2): Linear(in_features=256, out_features=256, bias=True)
        )
      )
      (classfier_5): MLP(
        (mlp): Sequential(
          (0): Linear(in_features=256, out_features=256, bias=True)
          (1): LeakyReLU(negative_slope=0.2, inplace=True)
          (2): Linear(in_features=256, out_features=256, bias=True)
        )
      )
    )
    (predict_res_lower): predict_residual_zq(
      (cross_layer): TransformerDecoderLayer(
        (self_attn): MultiheadAttention(
          (out_proj): NonDynamicallyQuantizableLinear(in_features=256, out_features=256, bias=True)
        )
        (multihead_attn): MultiheadAttention(
          (out_proj): NonDynamicallyQuantizableLinear(in_features=256, out_features=256, bias=True)
        )
        (linear1): Linear(in_features=256, out_features=1024, bias=True)
        (dropout): Dropout(p=0.1, inplace=False)
        (linear2): Linear(in_features=1024, out_features=256, bias=True)
        (norm1): LayerNorm((256,), eps=1e-05, elementwise_affine=True)
        (norm2): LayerNorm((256,), eps=1e-05, elementwise_affine=True)
        (norm3): LayerNorm((256,), eps=1e-05, elementwise_affine=True)
        (dropout1): Dropout(p=0.1, inplace=False)
        (dropout2): Dropout(p=0.1, inplace=False)
        (dropout3): Dropout(p=0.1, inplace=False)
      )
      (cross_attn_1): TransformerDecoder(
        (layers): ModuleList(
          (0-2): 3 x TransformerDecoderLayer(
            (self_attn): MultiheadAttention(
              (out_proj): NonDynamicallyQuantizableLinear(in_features=256, out_features=256, bias=True)
            )
            (multihead_attn): MultiheadAttention(
              (out_proj): NonDynamicallyQuantizableLinear(in_features=256, out_features=256, bias=True)
            )
            (linear1): Linear(in_features=256, out_features=1024, bias=True)
            (dropout): Dropout(p=0.1, inplace=False)
            (linear2): Linear(in_features=1024, out_features=256, bias=True)
            (norm1): LayerNorm((256,), eps=1e-05, elementwise_affine=True)
            (norm2): LayerNorm((256,), eps=1e-05, elementwise_affine=True)
            (norm3): LayerNorm((256,), eps=1e-05, elementwise_affine=True)
            (dropout1): Dropout(p=0.1, inplace=False)
            (dropout2): Dropout(p=0.1, inplace=False)
            (dropout3): Dropout(p=0.1, inplace=False)
          )
        )
      )
      (cross_attn_2): TransformerDecoder(
        (layers): ModuleList(
          (0-2): 3 x TransformerDecoderLayer(
            (self_attn): MultiheadAttention(
              (out_proj): NonDynamicallyQuantizableLinear(in_features=256, out_features=256, bias=True)
            )
            (multihead_attn): MultiheadAttention(
              (out_proj): NonDynamicallyQuantizableLinear(in_features=256, out_features=256, bias=True)
            )
            (linear1): Linear(in_features=256, out_features=1024, bias=True)
            (dropout): Dropout(p=0.1, inplace=False)
            (linear2): Linear(in_features=1024, out_features=256, bias=True)
            (norm1): LayerNorm((256,), eps=1e-05, elementwise_affine=True)
            (norm2): LayerNorm((256,), eps=1e-05, elementwise_affine=True)
            (norm3): LayerNorm((256,), eps=1e-05, elementwise_affine=True)
            (dropout1): Dropout(p=0.1, inplace=False)
            (dropout2): Dropout(p=0.1, inplace=False)
            (dropout3): Dropout(p=0.1, inplace=False)
          )
        )
      )
      (cross_attn_3): TransformerDecoder(
        (layers): ModuleList(
          (0-2): 3 x TransformerDecoderLayer(
            (self_attn): MultiheadAttention(
              (out_proj): NonDynamicallyQuantizableLinear(in_features=256, out_features=256, bias=True)
            )
            (multihead_attn): MultiheadAttention(
              (out_proj): NonDynamicallyQuantizableLinear(in_features=256, out_features=256, bias=True)
            )
            (linear1): Linear(in_features=256, out_features=1024, bias=True)
            (dropout): Dropout(p=0.1, inplace=False)
            (linear2): Linear(in_features=1024, out_features=256, bias=True)
            (norm1): LayerNorm((256,), eps=1e-05, elementwise_affine=True)
            (norm2): LayerNorm((256,), eps=1e-05, elementwise_affine=True)
            (norm3): LayerNorm((256,), eps=1e-05, elementwise_affine=True)
            (dropout1): Dropout(p=0.1, inplace=False)
            (dropout2): Dropout(p=0.1, inplace=False)
            (dropout3): Dropout(p=0.1, inplace=False)
          )
        )
      )
      (cross_attn_4): TransformerDecoder(
        (layers): ModuleList(
          (0-2): 3 x TransformerDecoderLayer(
            (self_attn): MultiheadAttention(
              (out_proj): NonDynamicallyQuantizableLinear(in_features=256, out_features=256, bias=True)
            )
            (multihead_attn): MultiheadAttention(
              (out_proj): NonDynamicallyQuantizableLinear(in_features=256, out_features=256, bias=True)
            )
            (linear1): Linear(in_features=256, out_features=1024, bias=True)
            (dropout): Dropout(p=0.1, inplace=False)
            (linear2): Linear(in_features=1024, out_features=256, bias=True)
            (norm1): LayerNorm((256,), eps=1e-05, elementwise_affine=True)
            (norm2): LayerNorm((256,), eps=1e-05, elementwise_affine=True)
            (norm3): LayerNorm((256,), eps=1e-05, elementwise_affine=True)
            (dropout1): Dropout(p=0.1, inplace=False)
            (dropout2): Dropout(p=0.1, inplace=False)
            (dropout3): Dropout(p=0.1, inplace=False)
          )
        )
      )
      (cross_attn_5): TransformerDecoder(
        (layers): ModuleList(
          (0-2): 3 x TransformerDecoderLayer(
            (self_attn): MultiheadAttention(
              (out_proj): NonDynamicallyQuantizableLinear(in_features=256, out_features=256, bias=True)
            )
            (multihead_attn): MultiheadAttention(
              (out_proj): NonDynamicallyQuantizableLinear(in_features=256, out_features=256, bias=True)
            )
            (linear1): Linear(in_features=256, out_features=1024, bias=True)
            (dropout): Dropout(p=0.1, inplace=False)
            (linear2): Linear(in_features=1024, out_features=256, bias=True)
            (norm1): LayerNorm((256,), eps=1e-05, elementwise_affine=True)
            (norm2): LayerNorm((256,), eps=1e-05, elementwise_affine=True)
            (norm3): LayerNorm((256,), eps=1e-05, elementwise_affine=True)
            (dropout1): Dropout(p=0.1, inplace=False)
            (dropout2): Dropout(p=0.1, inplace=False)
            (dropout3): Dropout(p=0.1, inplace=False)
          )
        )
      )
      (map_zq2): Linear(in_features=512, out_features=256, bias=True)
      (map_zq3): Linear(in_features=768, out_features=256, bias=True)
      (map_zq4): Linear(in_features=1024, out_features=256, bias=True)
      (map_zq5): Linear(in_features=1280, out_features=256, bias=True)
      (classfier_1): MLP(
        (mlp): Sequential(
          (0): Linear(in_features=256, out_features=256, bias=True)
          (1): LeakyReLU(negative_slope=0.2, inplace=True)
          (2): Linear(in_features=256, out_features=256, bias=True)
        )
      )
      (classfier_2): MLP(
        (mlp): Sequential(
          (0): Linear(in_features=256, out_features=256, bias=True)
          (1): LeakyReLU(negative_slope=0.2, inplace=True)
          (2): Linear(in_features=256, out_features=256, bias=True)
        )
      )
      (classfier_3): MLP(
        (mlp): Sequential(
          (0): Linear(in_features=256, out_features=256, bias=True)
          (1): LeakyReLU(negative_slope=0.2, inplace=True)
          (2): Linear(in_features=256, out_features=256, bias=True)
        )
      )
      (classfier_4): MLP(
        (mlp): Sequential(
          (0): Linear(in_features=256, out_features=256, bias=True)
          (1): LeakyReLU(negative_slope=0.2, inplace=True)
          (2): Linear(in_features=256, out_features=256, bias=True)
        )
      )
      (classfier_5): MLP(
        (mlp): Sequential(
          (0): Linear(in_features=256, out_features=256, bias=True)
          (1): LeakyReLU(negative_slope=0.2, inplace=True)
          (2): Linear(in_features=256, out_features=256, bias=True)
        )
      )
    )
    (body1d): Conv1d(768, 768, kernel_size=(2,), stride=(2,))
    (upper1d): Conv1d(256, 256, kernel_size=(2,), stride=(2,))
    (hands1d): Conv1d(256, 256, kernel_size=(2,), stride=(2,))
    (lower1d): Conv1d(256, 256, kernel_size=(2,), stride=(2,))
    (spearker_encoder_body1d): Conv1d(768, 768, kernel_size=(2,), stride=(2,))
    (text_pre_encoder_body): Embedding(11195, 300)
    (text_encoder_body): Linear(in_features=300, out_features=256, bias=True)
    (motion_encoder): VQEncoderV6(
      (main): Sequential(
        (0): Conv1d(337, 256, kernel_size=(3,), stride=(1,), padding=(1,))
        (1): LeakyReLU(negative_slope=0.2)
        (2): ResBlock(
          (model): Sequential(
            (0): Conv1d(256, 256, kernel_size=(3,), stride=(1,), padding=(1,))
            (1): LeakyReLU(negative_slope=0.2)
            (2): Conv1d(256, 256, kernel_size=(3,), stride=(1,), padding=(1,))
          )
        )
        (3): Conv1d(256, 256, kernel_size=(3,), stride=(1,), padding=(1,))
        (4): LeakyReLU(negative_slope=0.2)
        (5): ResBlock(
          (model): Sequential(
            (0): Conv1d(256, 256, kernel_size=(3,), stride=(1,), padding=(1,))
            (1): LeakyReLU(negative_slope=0.2)
            (2): Conv1d(256, 256, kernel_size=(3,), stride=(1,), padding=(1,))
          )
        )
        (6): Conv1d(256, 256, kernel_size=(3,), stride=(1,), padding=(1,))
        (7): LeakyReLU(negative_slope=0.2)
        (8): ResBlock(
          (model): Sequential(
            (0): Conv1d(256, 256, kernel_size=(3,), stride=(1,), padding=(1,))
            (1): LeakyReLU(negative_slope=0.2)
            (2): Conv1d(256, 256, kernel_size=(3,), stride=(1,), padding=(1,))
          )
        )
      )
    )
    (transformer_de_layer): TransformerDecoderLayer(
      (self_attn): MultiheadAttention(
        (out_proj): NonDynamicallyQuantizableLinear(in_features=768, out_features=768, bias=True)
      )
      (multihead_attn): MultiheadAttention(
        (out_proj): NonDynamicallyQuantizableLinear(in_features=768, out_features=768, bias=True)
      )
      (linear1): Linear(in_features=768, out_features=1536, bias=True)
      (dropout): Dropout(p=0.1, inplace=False)
      (linear2): Linear(in_features=1536, out_features=768, bias=True)
      (norm1): LayerNorm((768,), eps=1e-05, elementwise_affine=True)
      (norm2): LayerNorm((768,), eps=1e-05, elementwise_affine=True)
      (norm3): LayerNorm((768,), eps=1e-05, elementwise_affine=True)
      (dropout1): Dropout(p=0.1, inplace=False)
      (dropout2): Dropout(p=0.1, inplace=False)
      (dropout3): Dropout(p=0.1, inplace=False)
    )
    (transformer_de_fu_layer): TransformerDecoderLayer(
      (self_attn): MultiheadAttention(
        (out_proj): NonDynamicallyQuantizableLinear(in_features=256, out_features=256, bias=True)
      )
      (multihead_attn): MultiheadAttention(
        (out_proj): NonDynamicallyQuantizableLinear(in_features=256, out_features=256, bias=True)
      )
      (linear1): Linear(in_features=256, out_features=512, bias=True)
      (dropout): Dropout(p=0.1, inplace=False)
      (linear2): Linear(in_features=512, out_features=256, bias=True)
      (norm1): LayerNorm((256,), eps=1e-05, elementwise_affine=True)
      (norm2): LayerNorm((256,), eps=1e-05, elementwise_affine=True)
      (norm3): LayerNorm((256,), eps=1e-05, elementwise_affine=True)
      (dropout1): Dropout(p=0.1, inplace=False)
      (dropout2): Dropout(p=0.1, inplace=False)
      (dropout3): Dropout(p=0.1, inplace=False)
    )
    (semantic_body_decoder): TransformerDecoder(
      (layers): ModuleList(
        (0): TransformerDecoderLayer(
          (self_attn): MultiheadAttention(
            (out_proj): NonDynamicallyQuantizableLinear(in_features=256, out_features=256, bias=True)
          )
          (multihead_attn): MultiheadAttention(
            (out_proj): NonDynamicallyQuantizableLinear(in_features=256, out_features=256, bias=True)
          )
          (linear1): Linear(in_features=256, out_features=512, bias=True)
          (dropout): Dropout(p=0.1, inplace=False)
          (linear2): Linear(in_features=512, out_features=256, bias=True)
          (norm1): LayerNorm((256,), eps=1e-05, elementwise_affine=True)
          (norm2): LayerNorm((256,), eps=1e-05, elementwise_affine=True)
          (norm3): LayerNorm((256,), eps=1e-05, elementwise_affine=True)
          (dropout1): Dropout(p=0.1, inplace=False)
          (dropout2): Dropout(p=0.1, inplace=False)
          (dropout3): Dropout(p=0.1, inplace=False)
        )
      )
    )
    (body_semantic_mlp): MLP(
      (mlp): Sequential(
        (0): Linear(in_features=256, out_features=256, bias=True)
        (1): LeakyReLU(negative_slope=0.2, inplace=True)
        (2): Linear(in_features=256, out_features=256, bias=True)
      )
    )
    (hands_face_decoder): TransformerDecoder(
      (layers): ModuleList(
        (0): TransformerDecoderLayer(
          (self_attn): MultiheadAttention(
            (out_proj): NonDynamicallyQuantizableLinear(in_features=256, out_features=256, bias=True)
          )
          (multihead_attn): MultiheadAttention(
            (out_proj): NonDynamicallyQuantizableLinear(in_features=256, out_features=256, bias=True)
          )
          (linear1): Linear(in_features=256, out_features=512, bias=True)
          (dropout): Dropout(p=0.1, inplace=False)
          (linear2): Linear(in_features=512, out_features=256, bias=True)
          (norm1): LayerNorm((256,), eps=1e-05, elementwise_affine=True)
          (norm2): LayerNorm((256,), eps=1e-05, elementwise_affine=True)
          (norm3): LayerNorm((256,), eps=1e-05, elementwise_affine=True)
          (dropout1): Dropout(p=0.1, inplace=False)
          (dropout2): Dropout(p=0.1, inplace=False)
          (dropout3): Dropout(p=0.1, inplace=False)
        )
      )
    )
    (position_embeddings): PeriodicPositionalEncoding(
      (dropout): Dropout(p=0.1, inplace=False)
    )
    (semantic_position_embeddings): PeriodicPositionalEncoding(
      (dropout): Dropout(p=0.1, inplace=False)
    )
    (transformer_en_layer): TransformerEncoderLayer(
      (self_attn): MultiheadAttention(
        (out_proj): NonDynamicallyQuantizableLinear(in_features=768, out_features=768, bias=True)
      )
      (linear1): Linear(in_features=768, out_features=1536, bias=True)
      (dropout): Dropout(p=0.1, inplace=False)
      (linear2): Linear(in_features=1536, out_features=768, bias=True)
      (norm1): LayerNorm((768,), eps=1e-05, elementwise_affine=True)
      (norm2): LayerNorm((768,), eps=1e-05, elementwise_affine=True)
      (dropout1): Dropout(p=0.1, inplace=False)
      (dropout2): Dropout(p=0.1, inplace=False)
    )
    (motion_self_encoder): TransformerEncoder(
      (layers): ModuleList(
        (0): TransformerEncoderLayer(
          (self_attn): MultiheadAttention(
            (out_proj): NonDynamicallyQuantizableLinear(in_features=768, out_features=768, bias=True)
          )
          (linear1): Linear(in_features=768, out_features=1536, bias=True)
          (dropout): Dropout(p=0.1, inplace=False)
          (linear2): Linear(in_features=1536, out_features=768, bias=True)
          (norm1): LayerNorm((768,), eps=1e-05, elementwise_affine=True)
          (norm2): LayerNorm((768,), eps=1e-05, elementwise_affine=True)
          (dropout1): Dropout(p=0.1, inplace=False)
          (dropout2): Dropout(p=0.1, inplace=False)
        )
      )
    )
    (audio_feature2motion): Linear(in_features=256, out_features=768, bias=True)
    (feature2motion): Linear(in_features=256, out_features=768, bias=True)
    (bodyhints_body): MLP(
      (mlp): Sequential(
        (0): Linear(in_features=256, out_features=768, bias=True)
        (1): LeakyReLU(negative_slope=0.2, inplace=True)
        (2): Linear(in_features=768, out_features=256, bias=True)
      )
    )
    (motion2latent_upper): MLP(
      (mlp): Sequential(
        (0): Linear(in_features=768, out_features=768, bias=True)
        (1): LeakyReLU(negative_slope=0.2, inplace=True)
        (2): Linear(in_features=768, out_features=768, bias=True)
      )
    )
    (motion2latent_hands): MLP(
      (mlp): Sequential(
        (0): Linear(in_features=768, out_features=768, bias=True)
        (1): LeakyReLU(negative_slope=0.2, inplace=True)
        (2): Linear(in_features=768, out_features=768, bias=True)
      )
    )
    (motion2latent_lower): MLP(
      (mlp): Sequential(
        (0): Linear(in_features=768, out_features=768, bias=True)
        (1): LeakyReLU(negative_slope=0.2, inplace=True)
        (2): Linear(in_features=768, out_features=768, bias=True)
      )
    )
    (wordhints_decoder): TransformerDecoder(
      (layers): ModuleList(
        (0-7): 8 x TransformerDecoderLayer(
          (self_attn): MultiheadAttention(
            (out_proj): NonDynamicallyQuantizableLinear(in_features=768, out_features=768, bias=True)
          )
          (multihead_attn): MultiheadAttention(
            (out_proj): NonDynamicallyQuantizableLinear(in_features=768, out_features=768, bias=True)
          )
          (linear1): Linear(in_features=768, out_features=1536, bias=True)
          (dropout): Dropout(p=0.1, inplace=False)
          (linear2): Linear(in_features=1536, out_features=768, bias=True)
          (norm1): LayerNorm((768,), eps=1e-05, elementwise_affine=True)
          (norm2): LayerNorm((768,), eps=1e-05, elementwise_affine=True)
          (norm3): LayerNorm((768,), eps=1e-05, elementwise_affine=True)
          (dropout1): Dropout(p=0.1, inplace=False)
          (dropout2): Dropout(p=0.1, inplace=False)
          (dropout3): Dropout(p=0.1, inplace=False)
        )
      )
    )
    (upper_decoder): TransformerDecoder(
      (layers): ModuleList(
        (0): TransformerDecoderLayer(
          (self_attn): MultiheadAttention(
            (out_proj): NonDynamicallyQuantizableLinear(in_features=768, out_features=768, bias=True)
          )
          (multihead_attn): MultiheadAttention(
            (out_proj): NonDynamicallyQuantizableLinear(in_features=768, out_features=768, bias=True)
          )
          (linear1): Linear(in_features=768, out_features=1536, bias=True)
          (dropout): Dropout(p=0.1, inplace=False)
          (linear2): Linear(in_features=1536, out_features=768, bias=True)
          (norm1): LayerNorm((768,), eps=1e-05, elementwise_affine=True)
          (norm2): LayerNorm((768,), eps=1e-05, elementwise_affine=True)
          (norm3): LayerNorm((768,), eps=1e-05, elementwise_affine=True)
          (dropout1): Dropout(p=0.1, inplace=False)
          (dropout2): Dropout(p=0.1, inplace=False)
          (dropout3): Dropout(p=0.1, inplace=False)
        )
      )
    )
    (hands_decoder): TransformerDecoder(
      (layers): ModuleList(
        (0): TransformerDecoderLayer(
          (self_attn): MultiheadAttention(
            (out_proj): NonDynamicallyQuantizableLinear(in_features=768, out_features=768, bias=True)
          )
          (multihead_attn): MultiheadAttention(
            (out_proj): NonDynamicallyQuantizableLinear(in_features=768, out_features=768, bias=True)
          )
          (linear1): Linear(in_features=768, out_features=1536, bias=True)
          (dropout): Dropout(p=0.1, inplace=False)
          (linear2): Linear(in_features=1536, out_features=768, bias=True)
          (norm1): LayerNorm((768,), eps=1e-05, elementwise_affine=True)
          (norm2): LayerNorm((768,), eps=1e-05, elementwise_affine=True)
          (norm3): LayerNorm((768,), eps=1e-05, elementwise_affine=True)
          (dropout1): Dropout(p=0.1, inplace=False)
          (dropout2): Dropout(p=0.1, inplace=False)
          (dropout3): Dropout(p=0.1, inplace=False)
        )
      )
    )
    (lower_decoder): TransformerDecoder(
      (layers): ModuleList(
        (0): TransformerDecoderLayer(
          (self_attn): MultiheadAttention(
            (out_proj): NonDynamicallyQuantizableLinear(in_features=768, out_features=768, bias=True)
          )
          (multihead_attn): MultiheadAttention(
            (out_proj): NonDynamicallyQuantizableLinear(in_features=768, out_features=768, bias=True)
          )
          (linear1): Linear(in_features=768, out_features=1536, bias=True)
          (dropout): Dropout(p=0.1, inplace=False)
          (linear2): Linear(in_features=1536, out_features=768, bias=True)
          (norm1): LayerNorm((768,), eps=1e-05, elementwise_affine=True)
          (norm2): LayerNorm((768,), eps=1e-05, elementwise_affine=True)
          (norm3): LayerNorm((768,), eps=1e-05, elementwise_affine=True)
          (dropout1): Dropout(p=0.1, inplace=False)
          (dropout2): Dropout(p=0.1, inplace=False)
          (dropout3): Dropout(p=0.1, inplace=False)
        )
      )
    )
    (upper_hands_decoder): TransformerDecoder(
      (layers): ModuleList(
        (0): TransformerDecoderLayer(
          (self_attn): MultiheadAttention(
            (out_proj): NonDynamicallyQuantizableLinear(in_features=256, out_features=256, bias=True)
          )
          (multihead_attn): MultiheadAttention(
            (out_proj): NonDynamicallyQuantizableLinear(in_features=256, out_features=256, bias=True)
          )
          (linear1): Linear(in_features=256, out_features=512, bias=True)
          (dropout): Dropout(p=0.1, inplace=False)
          (linear2): Linear(in_features=512, out_features=256, bias=True)
          (norm1): LayerNorm((256,), eps=1e-05, elementwise_affine=True)
          (norm2): LayerNorm((256,), eps=1e-05, elementwise_affine=True)
          (norm3): LayerNorm((256,), eps=1e-05, elementwise_affine=True)
          (dropout1): Dropout(p=0.1, inplace=False)
          (dropout2): Dropout(p=0.1, inplace=False)
          (dropout3): Dropout(p=0.1, inplace=False)
        )
      )
    )
    (lower_hands_decoder): TransformerDecoder(
      (layers): ModuleList(
        (0): TransformerDecoderLayer(
          (self_attn): MultiheadAttention(
            (out_proj): NonDynamicallyQuantizableLinear(in_features=256, out_features=256, bias=True)
          )
          (multihead_attn): MultiheadAttention(
            (out_proj): NonDynamicallyQuantizableLinear(in_features=256, out_features=256, bias=True)
          )
          (linear1): Linear(in_features=256, out_features=512, bias=True)
          (dropout): Dropout(p=0.1, inplace=False)
          (linear2): Linear(in_features=512, out_features=256, bias=True)
          (norm1): LayerNorm((256,), eps=1e-05, elementwise_affine=True)
          (norm2): LayerNorm((256,), eps=1e-05, elementwise_affine=True)
          (norm3): LayerNorm((256,), eps=1e-05, elementwise_affine=True)
          (dropout1): Dropout(p=0.1, inplace=False)
          (dropout2): Dropout(p=0.1, inplace=False)
          (dropout3): Dropout(p=0.1, inplace=False)
        )
      )
    )
    (upper_classifier): MLP(
      (mlp): Sequential(
        (0): Linear(in_features=256, out_features=768, bias=True)
        (1): LeakyReLU(negative_slope=0.2, inplace=True)
        (2): Linear(in_features=768, out_features=256, bias=True)
      )
    )
    (hands_classifier): MLP(
      (mlp): Sequential(
        (0): Linear(in_features=256, out_features=768, bias=True)
        (1): LeakyReLU(negative_slope=0.2, inplace=True)
        (2): Linear(in_features=768, out_features=256, bias=True)
      )
    )
    (lower_classifier): MLP(
      (mlp): Sequential(
        (0): Linear(in_features=256, out_features=768, bias=True)
        (1): LeakyReLU(negative_slope=0.2, inplace=True)
        (2): Linear(in_features=768, out_features=256, bias=True)
      )
    )
    (motion_down_upper): Linear(in_features=768, out_features=256, bias=True)
    (motion_down_hands): Linear(in_features=768, out_features=256, bias=True)
    (motion_down_lower): Linear(in_features=768, out_features=256, bias=True)
    (spearker_encoder_body): Embedding(25, 768)
  )
)
 04-13 07:45:50 | init semtalk_svib_phys success
Successfully loaded self-pretrained checkpoints for VAESKConv
Successfully loaded self-pretrained checkpoints for VAESKConv
Successfully loaded self-pretrained checkpoints for VAESKConv
Successfully loaded self-pretrained checkpoints for VAESKConv
Successfully loaded self-pretrained checkpoints for VAESKConv
Successfully loaded self-pretrained checkpoints for VAESKConv
…
            (common): Sequential(
              (0): SkeletonPool()
              (1): Tanh()
            )
          )
        )
        (2-3): 2 x Sequential(
          (0): SkeletonResidual(
            (residual): Sequential(
              (0): SkeletonConv()
              (1): GroupNorm(10, 240, eps=1e-05, affine=True)
            )
            (shortcut): SkeletonConv()
            (common): Sequential(
              (0): Tanh()
            )
          )
        )
      )
    )
    (decoder): VQDecoderV3(
      (main): Sequential(
        (0): ResBlock(
          (model): Sequential(
            (0): Conv1d(240, 240, kernel_size=(3,), stride=(1,), padding=(1,))
            (1): LeakyReLU(negative_slope=0.2)
            (2): Conv1d(240, 240, kernel_size=(3,), stride=(1,), padding=(1,))
          )
        )
        (1): ResBlock(
          (model): Sequential(
            (0): Conv1d(240, 240, kernel_size=(3,), stride=(1,), padding=(1,))
            (1): LeakyReLU(negative_slope=0.2)
            (2): Conv1d(240, 240, kernel_size=(3,), stride=(1,), padding=(1,))
          )
        )
        (2): Upsample(scale_factor=2.0, mode='nearest')
        (3): Conv1d(240, 240, kernel_size=(3,), stride=(1,), padding=(1,))
        (4): LeakyReLU(negative_slope=0.2, inplace=True)
        (5): Upsample(scale_factor=2.0, mode='nearest')
        (6): Conv1d(240, 240, kernel_size=(3,), stride=(1,), padding=(1,))
        (7): LeakyReLU(negative_slope=0.2, inplace=True)
        (8): Upsample(scale_factor=2.0, mode='nearest')
        (9): Conv1d(240, 240, kernel_size=(3,), stride=(1,), padding=(1,))
        (10): LeakyReLU(negative_slope=0.2, inplace=True)
        (11): Upsample(scale_factor=2.0, mode='nearest')
        (12): Conv1d(240, 330, kernel_size=(3,), stride=(1,), padding=(1,))
        (13): LeakyReLU(negative_slope=0.2, inplace=True)
        (14): Conv1d(330, 330, kernel_size=(3,), stride=(1,), padding=(1,))
      )
    )
    (fc_mu): Linear(in_features=240, out_features=240, bias=True)
    (fc_logvar): Linear(in_features=240, out_features=240, bias=True)
  )
)
 04-13 07:45:52 | init VAESKConv success
 04-13 07:45:52 | [sparse_trainer] Using original semtalk_base as base module
Error occurred during strict loading: Error(s) in loading state_dict for semtalk_base:
	Missing key(s) in state_dict: "base_mass_cond_gate", "base_mass_cond_vector", "base_mass_cond_proj.0.weight", "base_mass_cond_proj.0.bias", "base_mass_cond_proj.1.weight", "base_mass_cond_proj.1.bias", "base_mass_cond_proj.3.weight", "base_mass_cond_proj.3.bias", "base_mass_cond_hidden_proj.0.weight", "base_mass_cond_hidden_proj.0.bias", "base_mass_cond_hidden_proj.1.weight", "base_mass_cond_hidden_proj.1.bias". 
…
